data/basic_nn/nn_save_cat5_final.pt (torch, 4459 bytes, 6 tensors)

hidden1.weight f4 [20, 20]
00000000: 6c3b b93d dac5 c03e 572f 19bd ff5a 2a3e
00000010: 7b1c b93d 25bf 643d 0dd3 533e 8ede cc3d
00000020: 7da2 84bd 57d0 33bc 979e 3b3e dc19 6f3e
00000030: b58d c53c 5e6b f73d 7135 e53d 6367 b93d
00000040: 9c7d 64be 0d3a 1c3e 6161 95bd a1bf 1a3e
00000050: 1b29 ab3e c252 393e 8796 b23d 82a6 b9bd
00000060: c512 5e3e 6581 8d3e 7398 1d3e 1da2 263d
00000070: d01c 50be ec41 203e 2c66 b33d 12f9 3a3e
00000080: 10d4 833d 8bef 7a3d 1b26 1a3c 9134 11be
00000090: d36c 043e 0348 2bbe 6d2b 2d3d cf42 083e
000000a0: b739 9ebd 8b9b 053e 0e2d 743e 2438 75be
000000b0: 3d9d 073e 4087 703d d0e5 1a3d 9de8 84bd
000000c0: b18f f7bd 80d1 1dbe 3fcf 143e 94c9 24bd
000000d0: fb62 2e3e b076 01bd 1c26 09be 8e12 073e
000000e0: e024 cdbd b802 a9bd 4399 c1bd 69b4 82bc
000000f0: c3a4 ea3e e286 813e f59b 713e 5f24 133e
00000100: eae5 8a3e 04ec bdbd 51fd ccbd 7b7e 0a3e
00000110: 9e52 2dbe f561 523e 28b8 28bd 9ea4 21be
00000120: 6dc9 193b ee29 42be f03d 303e 992b 113e
00000130: 573a 14bd 475d e1bd 35c2 44bd c181 41be
00000140: 4742 08be e102 78be 30c5 f6be 7d47 5c3d
00000150: 73fc 24bc 3739 babd dc01 4cbe 042b 63be
00000160: 8bf2 e9bd 9bcb 3c3d 5f16 a63b 02a7 02be
00000170: 7f6e 4ebe 3b70 43be a183 233e f652 03be
00000180: 0f3b a3bd be43 07be a77e 2d3e 7d5e 333e
00000190: 215d cc3d eddc 97bd b250 823d a3b8 3fbe
000001a0: ae71 8cbb 33f5 e83d 5998 aebd 6d91 ebbd
000001b0: cd56 043e ed68 2b3e a23a 083e 8355 fbbd
000001c0: 857f 1abe 4a19 00be 441a e53d ec96 b3bc
000001d0: 1236 cbbd 1104 4c3c 9796 833d 39a2 443e
000001e0: eeb0 d2bd 4d26 423e cb2a d73d c7e6 843c
000001f0: 1349 fcbc 40b5 4abe 5fc8 53be b390 5abe
00000200: 9b6f debd e5e5 9ebd 596f 89bb 4388 ae3a
00000210: aabb 0e3e 3212 b83d ef41 56bd 52d0 5dbe
00000220: 1681 61be 4d8c 20bd 5aef 65bd 838d 093c
00000230: a94a 04be d875 233d 568c bfbd 6bdc cdbd
00000240: 7064 1fbe 89c2 073d 2905 cebd 700b 2abe
00000250: 8af0 44be 2978 43be 12a6 e83c 43a0 66be
00000260: 111c fdbc 0c40 353e b515 bb3d a6f3 473b
00000270: c08a 03be 2a75 adbd 3b52 6fbe 6449 2f3e
00000280: d520 863e 529b 303e 1211 6f3d 294d 053e
00000290: 995c 7bbd e15c 7bbd 8a6c e3bd c34a f6bd
000002a0: 34e7 25be 6ea5 f6bc a566 cebd be8e 2e3e
000002b0: 2e0a cc3d 4983 d93d e5b0 883d 4f55 65bd
000002c0: ece8 953d 2c33 49be bfc6 29be fdcf 883c
000002d0: 774e 9e3d b4ac 563d de1b 0b3e 5844 c63c
000002e0: 302a 34be 4110 0d3d 0b49 21bd 80ce 2a3d
000002f0: f48a eebd 6361 2ebe 6a28 94bd 4b2e e03d
00000300: d70a da3d d660 42be 43d8 413e faf3 febc
00000310: 4ec1 933d 5050 433e 52ea d5bd cc21 15be
00000320: 43a8 8e3e 24ee 493d ee59 e33e 44ad a43d
00000330: f44c 753d d8f6 ccbd 3f3b e73d f821 78bd
00000340: 898d 23be 7bbd 793e 41bf fcbd e5a3 f5bc
00000350: 29ed 813e c669 923d 5b36 11be 2a05 d6bc
00000360: 002e e23d f57c 183d d6db 563e fc5b 5abe
00000370: ecf4 3fbe 6fac b2bd 6276 f1be 135f 29be
00000380: 97ee 58be 6873 de3d c838 84bc 8c67 9e3d
00000390: fd4a 9b3d 7885 f2bd 4d9f 19be 62cb bc3c
000003a0: ad5d fd3b b0d5 3bbe 6643 fbbd 4e0e 9a3d
000003b0: 8a60 14be ed2d 8abd 95e6 c13d 345d 0dbe
000003c0: 0a28 3e3e cfd5 ecbd 411a 05be b0ac 88bc
000003d0: c482 55be fccb 433e 307d 083e b607 373d
000003e0: 60d8 58be 57b6 b43c 0e89 823b 9369 1d3e
000003f0: 3302 40be 1951 673e e7ad 06be 624d 55be
0.09044537 0.3765095 -0.037398662 0.16636275 0.09038635 0.055846352 0.20685978 0.100033864
-0.06476305 -0.010974965 0.18322216 0.23349708 0.024115423 0.120810255 0.11191834 0.090529226
-0.22313541 0.1525652 -0.07293964 0.15112163 0.33429798 0.18097976 0.08720117 -0.09064962
0.21686848 0.27637783 0.15390186 0.040681947 -0.20323491 0.15650147 0.08759722 0.18259075
0.06436932 0.061263602 0.009408499 -0.14180209 0.12932138 -0.16726689 0.042277742 0.13306735
-0.07725852 0.13047616 0.23845312 -0.23947197 0.13243575 0.058722734 0.037816823 -0.0648968
-0.12087954 -0.15411949 0.14532183 -0.040231302 0.17029946 -0.03160733 -0.13393444 0.13190672
-0.10016799 -0.08252472 -0.094530605 -0.015955167 0.45828828 0.2529822 0.23594649 0.14369343
0.27128536 -0.09273532 -0.10009254 0.13524811 -0.16926047 0.2054518 -0.04119125 -0.15785453
0.0023466006 -0.18961307 0.17211127 0.14176787 -0.03618845 -0.11004119 -0.048036773 -0.18897153
-0.13306533 -0.24219848 -0.48197317 0.053779114 -0.010069954 -0.09092944 -0.19922584 -0.22184378
-0.114232145 0.04609261 0.005068585 -0.12759021 -0.20159338 -0.19085781 0.15968181 -0.12824616
-0.07970249 -0.13209435 0.16942845 0.17516513 0.099787004 -0.07415185 0.06363048 -0.18722777
-0.0042860126 0.11374893 -0.08525152 -0.11502347 0.12923737 0.16739245 0.13303617 -0.122721694
-0.15087707 -0.12509647 0.111866504 -0.021922551 -0.099224225 0.012452141 0.06425207 0.19202508
-0.10287653 0.18959923 0.10506209 0.016223324 -0.030796563 -0.19795704 -0.20681904 -0.21344261
-0.10861131 -0.07758693 -0.004194182 0.0013315756 0.13938776 0.089878455 -0.052308973 -0.21661499
-0.22021899 -0.0391963 -0.056136467 0.008395555 -0.12919106 0.039907306 -0.09352939 -0.10051807
-0.15565658 0.033144508 -0.10059578 -0.16605926 -0.19232383 -0.19088806 0.028399501 -0.22522072
-0.030897172 0.17700213 0.09135 0.0030510216 -0.12845898 -0.08469613 -0.23371212 0.1711784
0.26196924 0.1724675 0.05836589 0.13017716 -0.061367605 -0.061367873 -0.111046866 -0.120259784
-0.16201478 -0.03010818 -0.10078172 0.1704664 0.09962879 0.10620744 0.06674365 -0.05598956
0.07319817 -0.19648427 -0.16579722 0.016700739 0.0772981 0.052410796 0.13584849 0.02420251
-0.17594218 0.03443933 -0.0393763 0.04170084 -0.11647597 -0.17029338 -0.07234271 0.1094633
0.10646599 -0.18982252 0.18930154 -0.031122196 0.07214604 0.19073606 -0.10445084 -0.14563674
0.27862749 0.049299374 0.44404548 0.0804086 0.05988784 -0.10008019 0.11290597 -0.06057927
-0.1597196 0.24388687 -0.12341166 -0.029985378 0.2537625 0.07149081 -0.14180891 -0.02612551
0.1104393 0.037228543 0.20982298 -0.21324152 -0.18745774 -0.08724295 -0.4716063 -0.16540174
-0.21184765 0.10861856 -0.016140357 0.07734594 0.07582662 -0.118418634 -0.15002175 0.0230462
0.0077321143 -0.18343234 -0.122687146 0.0752226 -0.14489952 -0.06747041 0.09467808 -0.13805085
0.18569961 -0.11564218 -0.12998296 -0.016683906 -0.20850664 0.19120783 0.13329005 0.044685088
-0.2117629 0.022059603 0.0039836233 0.15372305 -0.18750839 0.2258953 -0.13152276 -0.208303

hidden1.bias f4 [20]
00000000: 961c 4738 d651 283c c973 793c 9d33 ce3d
00000010: 430e ab3e e2d8 05bd 6eee 4dbe 70a7 d63d
00000020: b6db 2e3e d2e0 0f3e 07a9 713e b77e a43e
00000030: 63ba 883d d0bc 303e f405 72be 8ff3 c63c
00000040: df82 1d3d 4120 3a3e 7d1c 813d 3d90 8a3e
4.747192e-05 0.010273417 0.015225359 0.10068438 0.33409318 -0.03267754 -0.20110485 0.10481155
0.17076 0.14050606 0.23599635 0.32127926 0.066761754 0.17259526 -0.23635083 0.02428606
0.038454887 0.18176366 0.06304262 0.2706317

hidden2.weight f4 [5, 20]
00000000: 81d4 a83e 85ec aa3e fa26 083e 4224 033f
00000010: f3fe 23bf 828d 31bd 4c2e d2ba 7cf9 15be
00000020: 508a 443e 1bb0 d33d 6548 f03e 246b 05bf
00000030: ee32 f4bd 127e 27be 6596 433e e760 ce3e
00000040: c626 b13e b6c3 c73e c650 8c3e e8eb 613f
00000050: 3eaf 043e 5427 cfbd 8032 013b a0bb 07bc
00000060: 8827 63be 603b 00bc d326 edbd a8ae 083e
00000070: 00a9 2dba 60fe 34bc fc95 ce3d c267 dfbd
00000080: e0bb 04bc 2ec8 c6bd 3841 b43c 5a1c 5a3e
00000090: acac 8cbd 71ec 41be 4f07 51be 874c 64be
000000a0: d17b 6cbd e704 95bd 335e 8dbd c201 0bbe
000000b0: 92d6 5dbd 9326 283c 79e8 003e 93e1 67be
000000c0: dc7f 77bd 81a7 823b a39d fbbd 2a1f 19bd
000000d0: dc7a 64bd 7e5e 103e 1216 133e ea60 163d
000000e0: 3447 3f3e dc84 3e3e c64d f53d e0fd d5bd
000000f0: 8d99 ffbc 1441 683d e0c1 d53d 3719 2e3e
00000100: a975 adbd 7f2b 44be c3a3 08be 6d1f 06be
00000110: 8efc 1f3e 3f07 bcbb c2cd 253e 5c20 09be
00000120: 3d51 1ebe 9d74 0c3c 05e5 4f3e 8619 e83d
00000130: 1dde 12be 00bb 8e3d d8e8 613e d51b 8b3e
00000140: ac3a 2ebe 22df 25bd d7be 1fbd dc9d 1b3d
00000150: e3ce 77be e704 40bd 2368 2cbe 37c7 cd3c
00000160: d858 0e3e 6bbc 163e e871 de3d 7c51 4e3d
00000170: ee27 04be f322 36be 2fb0 a4bd ef64 f1bc
00000180: 5f56 113d b621 6a3e 4881 7d3e 45ac 71bd
0.32974628 0.33383575 0.13296118 0.512272 -0.64060897 -0.043347843 -0.0016035526 -0.14645952
0.19193387 0.10336324 0.46930233 -0.5211661 -0.119237766 -0.16356686 0.1910034 0.40308306
0.34599894 0.39016503 0.27405375 0.8825059 0.12957475 -0.10114923 0.0019713938 -0.008284479
-0.22183049 -0.007826656 -0.11579671 0.13347876 -0.0006624609 -0.011046976 0.10087201 -0.10908462
-0.0081014335 -0.0970615 0.022003755 0.21299878 -0.06868872 -0.18937851 -0.20412944 -0.22294818
-0.057735268 -0.07276326 -0.06902733 -0.1357489 -0.05415971 0.010263103 0.12588681 -0.22644643
-0.06042467 0.003987253 -0.12285926 -0.037383236 -0.05578123 0.14098546 0.14363888 0.03671352
0.18679506 0.1860537 0.11977725 -0.104488134 -0.031201148 0.05670269 0.10437369 0.17001806
-0.084697075 -0.19157217 -0.1334372 -0.13097925 0.15623686 -0.0057381685 0.16191772 -0.1339125
-0.15460677 0.008572725 0.20302208 0.11332993 -0.14342542 0.06969261 0.22061479 0.27169672
-0.17014569 -0.040496 -0.03900036 0.037992343 -0.24200015 -0.046879675 -0.168366 0.025119407
0.13901079 0.14720313 0.1086157 0.05037068 -0.12905857 -0.1778677 -0.08041417 -0.029467074
0.03548276 0.22864422 0.24756348 -0.05900218

hidden2.bias f4 [5]
00000000: 22fc 393e 8ca5 0abe cfc4 4ebe 98ce b3ba
00000010: fee5 b4bd
0.18162587 -0.13539714 -0.20192264 -0.0013718186 -0.0883293

output_layer.weight f4 [2, 5]
00000000: 6fc0 43bf 8e17 9b3e 881e bfbe e9e1 b7be
00000010: 8798 e0be 70d5 bd3f 0061 033b 9c0b e03e
00000020: 53f0 bd3d 4f07 213e
-0.76465505 0.30291408 -0.3732798 -0.35914543 -0.4386637 1.4830761 0.002004683 0.43758857
0.09274354 0.15725444

output_layer.bias f4 [2]
00000000: 181f 4840 f2c7 36c0
3.1268978 -2.8559537
