data/basic_nn/nn_save_cat4_final.pt (torch, 4459 bytes, 6 tensors)

hidden1.weight f4 [20, 20]
00000000: 9ef5 f83c 5ad1 5f3e ca3c 17be f19e 06be
00000010: 6d94 963d 734a 663e 9297 b63d 863f 02be
00000020: 758f 99bd cd88 f33b 2c1e 3fbe bc4e a63d
00000030: 7dd4 36bd 901e a93d ec46 55be 52dc 9cbd
00000040: ac5f f2bd 7297 2d3e 99ed 283d 0288 d2bd
00000050: 6188 413e 4d3a f53c 1daa 1c3e fbd1 a0bd
00000060: f559 663e 6516 483d daff 3fbc d002 40be
00000070: 50fe 3c3e 1370 e4bc 18aa 5c3e ceb6 583e
00000080: 0af2 0ebe 119a 053e 7dfa 04be af7f d7bd
00000090: 04e1 99bc 0404 3ebe c8a8 35be 2634 a1bb
000000a0: 3049 a83c 870e edbc 2c38 e9bc 2dcb 1f3e
000000b0: 98b4 2f3e 6802 c73d c831 07bd 8b51 2c3e
000000c0: 1c15 3ebe 98aa 2c3d 3246 9bbd 05bd 69bc
000000d0: 08bf 11be 76e8 423e a8c8 5fbe 56a8 9b3c
000000e0: 4fed 573e b884 febd b909 0fbe 3047 b23b
000000f0: 62c4 8fbd aaf2 a73d 0af0 88bc f7e3 fabd
00000100: c5b4 d2bd 8b56 7abd db6b 14bd cd98 92ba
00000110: f7cd bf3d 74eb 7bbd 17fd 0bbe 5bf2 a03d
00000120: ddde 573e 5357 2cbe 8b9c 413e b046 b13a
00000130: ea9b 58bc 2fbf b7bd fa7e 603e fe76 a53d
00000140: 6723 9d3e 1f69 043f 3559 493e a9e9 023e
00000150: cc99 913d c73f 163e c049 8c3e bd88 9a3c
00000160: 8d78 6b3e f60b 0abd 7083 013d db6a c33c
00000170: b72c a53d 6df9 b3bd 95bd 0cbc 27be 403d
00000180: cf2c 563e 0a15 d83d 4e11 c2bd 020d 0bbe
00000190: 60fd aa3e 3233 433e 3df2 583e 854d 533e
000001a0: 6064 c53d f6ad aa3e 2c28 9d3e ce16 823e
000001b0: 14c7 263e be2b 783e 2725 c1bd 86e2 143e
000001c0: cc9b 0abe 1a1a 653e beda 373e f9f4 563e
000001d0: 1529 a13b 45e1 30be 30e4 51be 82c2 10be
000001e0: a65d ad3e ece6 943e 92c5 a33d f846 583d
000001f0: d856 95bc 063d 62bd 61c3 033e 2135 00bd
00000200: 57e9 013b 89b2 713e 7ab2 ca3d 0cc1 2c3d
00000210: 9b08 823d 7d86 7cbc 3cb8 97bd c91e 26be
00000220: 1a1c 2c3e 3cc6 ab3d 3428 cb3d 739c 49be
00000230: 21f1 c8be d79e d6be 227e 81be 3724 1abc
00000240: f0e4 a2bd 3b48 3fbe 7e67 ee3d 0dc1 44be
00000250: 8e87 75be b5cc 22be a654 46be 58ca 02be
00000260: 245a 17be 8cbe 29be a257 18be 6dac 23bd
00000270: b02d 5dbe 3926 123d bbde 17bd 1b56 bbbd
00000280: ed08 23bd 934a e3bd b8dd 40be 26ba 453e
00000290: 92d7 1cbe 145f 513e b457 403d b1bd 5e3e
000002a0: 0d51 863d b7fb eebd 9777 563e 61d5 d73d
000002b0: c3a0 11bd c4d7 373d 1ee9 bf3d db92 c0bd
000002c0: c371 22be a4f5 103e 626e 1bbd 91d8 303e
000002d0: 1dfb ddbd 6e54 c0be 1849 68bd 377e 07be
000002e0: b472 cc3d 69fd b8be fa03 aabe fdb6 343e
000002f0: 76b9 c73c ddb7 fcbd 68b4 dd3d 933a 2fbd
00000300: f374 213e c91e ba3d d5a5 9ebd 93e7 af3c
00000310: 6f24 b23d 2b8f 5cbd b4e3 d33d 3b88 bdbd
00000320: 3214 0b3e 686e 5abd 991e d43c 073c 243e
00000330: 80d0 a6bd ae8d dcbc e56b 9dbd 18e5 5ebe
00000340: 7ea6 97bd bb62 e03b 3e6c 253e f7ee 14be
00000350: bedc fc3b 12fb 643b 7439 84bd 9764 bdbd
00000360: c0b0 dc3d 46ec 63be 5a1c 2ebe 7332 873d
00000370: 8c45 313e ec07 e73d 58e5 20bb 07f5 3b3e
00000380: 4e7c 67be 90f6 1f3e 65f0 c93d 402e 753c
00000390: 64f4 08be 6dd4 123e f749 02be 36b9 223d
000003a0: 8977 4cbe 9394 60be f9d5 883c 1ff6 5a3e
000003b0: 76bd 54be 8a30 30be bf2e cf3d 7cd4 1c3e
000003c0: 71ef ae3d 1048 04bd da82 773e f652 a3bd
000003d0: 752e cbbd 1ab0 3ebe 5d44 a6bd 7135 27be
000003e0: 7389 1e3e 0264 3c3e 6167 8a3d d174 a43c
000003f0: 0263 2a3e bc78 cfbd 6c9f ea3d b0cb 2ebe
0.030390557 0.21857205 -0.14769283 -0.13146569 0.07352529 0.22489338 0.089156285 -0.12719545
-0.074980654 0.0074320794 -0.18663853 0.08120486 -0.04463624 0.082577825 -0.20827836 -0.0765921
-0.11834654 0.16952303 0.041242216 -0.10279848 0.1889968 0.029935027 0.15299268 -0.078525506
0.22495253 0.048849482 -0.011718715 -0.18751073 0.18456388 -0.027885472 0.2154926 0.21163484
-0.13959518 0.13047053 -0.12986179 -0.105224006 -0.018784054 -0.1855622 -0.17740166 -0.0049195467
0.020542711 -0.028937591 -0.028469168 0.15604849 0.17158735 0.09717256 -0.03300646 0.16827981
-0.1856274 0.04215488 -0.07581748 -0.014266257 -0.14233029 0.1903399 -0.21853888 0.019001167
0.2108662 -0.12427658 -0.13968553 0.005440615 -0.07019879 0.08200581 -0.016716022 -0.12250512
-0.10288385 -0.06111769 -0.03623567 -0.0011184454 0.093654566 -0.061503842 -0.13670765 0.07858726
0.2108111 -0.16830187 0.18907373 0.0013525095 -0.013220767 -0.08972012 0.21923438 0.080793366
0.30691072 0.517229 0.19662936 0.12784447 0.071094126 0.14672767 0.27400017 0.01886403
0.22995205 -0.033702813 0.03161949 0.023854664 0.08065169 -0.087878086 -0.008590122 0.047056343
0.2091553 0.10550888 -0.09475957 -0.13579181 0.33396435 0.19062498 0.21186157 0.2063504
0.09638286 0.33335847 0.3069471 0.25408024 0.1628688 0.24235436 -0.09430914 0.14539537
-0.13535994 0.22373238 0.17954537 0.20991887 0.0049182274 -0.17273434 -0.20497203 -0.14136699
0.3386051 0.2908243 0.07996668 0.052802056 -0.018229887 -0.055233978 0.128675 -0.031300668
0.001982292 0.23603262 0.09897323 0.04217629 0.063492976 -0.015412924 -0.07408187 -0.16222681
0.16807595 0.083874196 0.099197775 -0.19688587 -0.39246467 -0.4191806 -0.25291544 -0.009408048
-0.079538226 -0.18679897 0.11640833 -0.19214268 -0.23977491 -0.15898402 -0.19368228 -0.127725
-0.1478048 -0.16576594 -0.1487718 -0.03995936 -0.2159946 0.035680983 -0.037077647 -0.09147283
-0.039803434 -0.11098208 -0.18834579 0.19309291 -0.15316609 0.20446426 0.04695864 0.21752049
0.06558428 -0.116691045 0.20944057 0.10538746 -0.035553705 0.044883505 0.093706354 -0.094030105
-0.15863709 0.14156204 -0.037947066 0.17270114 -0.10838912 -0.37564415 -0.056710333 -0.13231741
0.099828154 -0.36130837 -0.3320616 0.1764793 0.024380427 -0.12339757 0.108254254 -0.04278047
0.15767269 0.09087903 -0.07746474 0.021472728 0.086983554 -0.053847473 0.10346165 -0.092544995
0.13581923 -0.053327948 0.025893496 0.16038524 -0.08145237 -0.026923027 -0.07686595 -0.2176708
-0.07404803 0.006847707 0.16154572 -0.14544283 0.007716744 0.0034939689 -0.06456271 -0.092477016
0.107759 -0.222581 -0.17003003 0.06601419 0.17311686 0.11280808 -0.0024550762 0.1835519
-0.22606012 0.156214 0.09860305 0.01496464 -0.13374478 0.14338847 -0.12723528 0.039727412
-0.19967474 -0.21931677 0.016703593 0.2138295 -0.20775399 -0.17206016 0.10116338 0.15315431
0.085417636 -0.032295287 0.2417101 -0.07974808 -0.0992097 -0.18621865 -0.08118508 -0.1632898
0.1548212 0.18397525 0.06757999 0.020075234 0.16639331 -0.1013045 0.114561886 -0.17069888

hidden1.bias f4 [20]
00000000: c688 14be fd05 acbd 5c09 1ebe ee10 3a3d
00000010: 11b4 1f3e 56b3 703e ce5c ff3d e809 b33e
00000020: 3c24 15be a778 763e a005 3abc f93e 883d
00000030: 7f92 1ebe 333a 05be 3902 8f3e dd60 1ebe
00000040: 3c1c 37bb 6b33 133f 59b9 bcbd b5ca 79bd
-0.145053 -0.0839958 -0.15433258 0.0454263 0.15596034 0.23505911 0.12468873 0.34968495
-0.14564604 0.24069463 -0.01135388 0.06652636 -0.15485571 -0.13010482 0.27931383 -0.15466638
-0.0027940413 0.5750033 -0.0921504 -0.060984332

hidden2.weight f4 [5, 20]
00000000: a974 b9ba 8667 4f3e 1564 d93c b20e 133e
00000010: 98e6 433d 58a4 9c3d 7c58 15be c162 073d
00000020: 90bf 10bc 029d 403c 411c 49be 20ed 17be
00000030: 89d0 4d3d cb7f 373e dc04 023d 4991 0e3e
00000040: 725b 3d3c dcb8 633e 4593 e03d c106 27be
00000050: 6bc7 663d b568 26be 6baa 813d 7cf3 ef3d
00000060: a95d b4bd 29a2 33be ec46 3e3e 9846 51be
00000070: 2cd0 313d 67c8 e73c ad05 89bc 8602 04be
00000080: b541 04be 9a5c cdbd 36d3 eabd 5256 163e
00000090: 5b37 603e ae41 3dbe 33b6 6c3d 3d75 8e3d
000000a0: 2001 763d ff68 34be 7012 fb3d cc6f ec3c
000000b0: f3db 863e af29 02be c0e3 30bd c007 c9bd
000000c0: faf9 a13d 8834 2bbd bd7c 2bbe 74ee bf3d
000000d0: 2c4d 0b3b 366f 333e c325 753d fd46 1c3e
000000e0: f45a 943d a47d 25be 3d23 4ebc a921 f3bd
000000f0: e167 c9bc 27f8 013e e15b aebd 061d 41bd
00000100: 0197 1b3f dd5d 1d3f 511a c53e 56e3 abbe
00000110: 34f7 dbbc 8c65 9bbe b911 c3bd 57c0 173e
00000120: 768b 4cbe 17b3 373e 659b 4abe bc10 e7bd
00000130: 3c5f 4b3e d5c8 66bd 4759 0c3e 40fa cb3d
00000140: 4cb9 c2bd 30f5 013e 9f3e d03c 46bb da3c
00000150: c1dd 0abe 7715 07be 55ba 1dbe e337 203f
00000160: 25a4 843d 6478 093f c198 27bd f7b5 79bc
00000170: b8b3 7b3e f858 823d b12b 9c3e ddfb 13be
00000180: 424b 8f3d 973d 3d3f eebc 273e a9a7 acbc
-0.0014149147 0.20254335 0.02653698 0.14361075 0.047827333 0.076485336 -0.14584535 0.033053163
-0.008834735 0.011756184 -0.19639684 -0.1483655 0.050247703 0.17919843 0.031742916 0.1392261
0.011557447 0.22238487 0.109655894 -0.1631117 0.056342524 -0.1625088 0.06331333 0.11716363
-0.08806927 -0.17542328 0.18581742 -0.20437086 0.04341142 0.028293801 -0.01672634 -0.12891588
-0.1291569 -0.10027428 -0.114660665 0.14681366 0.21896116 -0.18482086 0.057790946 0.06955955
0.060059667 -0.17618178 0.12259376 0.028861903 0.26339683 -0.12711214 -0.04318595 -0.09815931
0.07909007 -0.041798145 -0.16746803 0.09371653 0.0021255715 0.17522892 0.059850466 0.15261455
0.072439104 -0.1616121 -0.012581644 -0.118716545 -0.024585666 0.12692319 -0.08513618 -0.04714682
0.6077729 0.6147135 0.3849664 -0.3357188 -0.026851274 -0.30350912 -0.09524865 0.14819466
-0.19975075 0.17939411 -0.19785841 -0.11282489 0.19860548 -0.056343872 0.13705932 0.09959841
-0.09507999 0.12691188 0.025420485 0.026700627 -0.13561155 -0.13191782 -0.15403111 0.62585276
0.064766206 0.53699327 -0.04091716 -0.015241138 0.24580276 0.06364626 0.30502084 -0.14451547
0.06996776 0.73922104 0.16380665 -0.02107604

hidden2.bias f4 [5]
00000000: 49ad 37be 251b abbd a9a9 0e3d ece8 b03d
00000010: 09ea 8d3f
-0.17937197 -0.08354787 0.03482977 0.08638176 1.1087047

output_layer.weight f4 [2, 5]
00000000: 1db8 8fbd 3016 cf3e 66a2 f93b cf36 76bf
00000010: 85d8 8b3f 6732 11be 6f4d 67be 8392 bd3e
00000020: 9229 e83e 5ee1 91bf
-0.07017539 0.40446615 0.0076182364 -0.9617738 1.0925452 -0.14179383 -0.22588132 0.37025842
0.45344216 -1.1396902

output_layer.bias f4 [2]
00000000: 336b 443e f6af 2fbf
0.19181518 -0.6862787
