data/basic_nn/nn_save_cat2_final.pt (torch, 4459 bytes, 6 tensors)

hidden1.weight f4 [20, 20]
0	0x3e7ffc09	0.24998488
1	0xbe90593d	-0.28193083
2	0xbcdd1717	-0.02698855
3	0x3c782887	0.015146381
4	0xbd05c69e	-0.03266012
5	0xbed31e32	-0.41233975
6	0x3e044ef3	0.12920742
7	0x3e01ea13	0.12686948
8	0xbd84117a	-0.06448646
9	0x3d80113c	0.06253287
10	0x3e95ddc7	0.29270765
11	0x3dba0b5e	0.09084199
12	0x3e8229c1	0.2542248
13	0x3dd9c720	0.10633683
14	0x3e732263	0.23743586
15	0xbe7fa649	-0.24965777
16	0xbe11b06a	-0.14227453
17	0x3eae9eb8	0.34105468
18	0x3d067f79	0.03283641
19	0x3d89437f	0.06702327
20	0xbb6a3789	-0.0035738668
21	0x3e871ba4	0.26388276
22	0x3d7e4310	0.062075675
23	0xbe70a556	-0.2350057
24	0x3d2f281b	0.042762857
25	0x3e32abf0	0.17448401
26	0xbe83c15c	-0.2573346
27	0x3d7abe26	0.061216496
28	0x3e124337	0.14283453
29	0x3e86a88d	0.2630047
30	0x3e1ccd92	0.15312794
31	0xbcd3d930	-0.025860399
32	0xbd112fa0	-0.03544581
33	0xbe6cad8b	-0.23113076
34	0xbe745316	-0.2385982
35	0x3b9f2580	0.0048567653
36	0xbdb0e4eb	-0.08637413
37	0x3e8469c1	0.25861934
38	0xbe1e400f	-0.15454124
39	0x3d69f055	0.057113964
40	0xbdccbfab	-0.09997495
41	0xbe3623c1	-0.17787077
42	0xbb983150	-0.0046445504
43	0xbdcaed0e	-0.09908496
44	0x3d6a372c	0.057181522
45	0xbd4c76d3	-0.049918007
46	0x3e21cc23	0.15800528
47	0xbe66ff90	-0.22558427
48	0xbb8b8cd4	-0.0042587314
49	0x3e44be1b	0.19213144
50	0xbe15b24c	-0.14618796
51	0x3e29f46a	0.16597143
52	0xbde607f9	-0.112319894
53	0x3e01cd8f	0.1267607
54	0xbe6baf44	-0.23016077
55	0x3e3c795e	0.18405673
56	0x3e51256b	0.2042443
57	0xbd4f7cf8	-0.05065629
58	0x3de3c1f5	0.11120979
59	0xbe2076f9	-0.15670384
60	0xbe4da2e2	-0.20081666
61	0x3c7213df	0.014775245
62	0x3ee63d85	0.4496881
63	0x3e4d2ba2	0.20036176
64	0xbd1ea810	-0.038734496
65	0x3c0a2558	0.008431755
66	0x3d3e2ebb	0.046431284
67	0xbe0652e9	-0.13117565
68	0x3e86ee9f	0.26353928
69	0x3dd2d08d	0.10293684
70	0x3ef41e54	0.4767939
71	0x3d4ec2ba	0.050478674
72	0xbd7019c9	-0.05861834
73	0xbc886a77	-0.016652329
74	0x3ef5b258	0.47987628
75	0x3d145f0a	0.03622345
76	0x3c291c7f	0.010321735
77	0xbce585f5	-0.028017977
78	0x3e7507f9	0.23928823
79	0x3cd56611	0.026049646
80	0xbdb7fac9	-0.0898338
81	0xbdecf248	-0.11569649
82	0xbde4f1de	-0.11178945
83	0x3cc8e34e	0.02452245
84	0x3e481f15	0.19543107
85	0xbe1e31bf	-0.15448664
86	0xbe05e762	-0.13076547
87	0x3d5febbe	0.05466818
88	0x3e278ea9	0.16363014
89	0x3c593d16	0.013259193
90	0x3d168e01	0.03675652
91	0xbdc4eecf	-0.096158616
92	0xbbaa19d4	-0.0051910672
93	0xbd9b4b07	-0.0758267
94	0x3e26cebe	0.16289803
95	0xbe452d13	-0.19255476
96	0xbddb18f8	-0.10698122
97	0x3e0a777b	0.1352214
98	0xbc9269c7	-0.017872704
99	0x3d8ac146	0.06775145
100	0xbda4ace5	-0.080407895
101	0xbdc45075	-0.095856585
102	0x3e340f53	0.1758397
103	0xbe446436	-0.19178852
104	0x3d98921d	0.07449744
105	0x3f768270	0.9629278
106	0x3df2893a	0.1184258
107	0x3d2171e9	0.039415274
108	0x3dc82c75	0.097741045
109	0x3e00e5a6	0.12587604
110	0xbe1fbf89	-0.15600409
111	0x3e456164	0.19275433
112	0xbdc9cd68	-0.09853631
113	0xbd54e635	-0.051977355
114	0x3ec9f841	0.39447215
115	0xbe68d010	-0.2273562
116	0x3db82f1a	0.08993359
117	0xbe8c77b8	-0.27435088
118	0x3ddbf015	0.107391514
119	0xbd86ca14	-0.06581512
120	0x3dc028ae	0.09382759
121	0x3d08dcba	0.033413626
122	0xbe14e9aa	-0.14542261
123	0x3e9fad3e	0.3118686
124	0x3e596d3f	0.2123308
125	0xbe08c0d8	-0.13354814
126	0xbbd7ca95	-0.006585429
127	0xbe079a97	-0.13242565
128	0xbd06d504	-0.03291799
129	0xbcdc7a30	-0.026913732
130	0x3e5fb1b7	0.21845137
131	0xbd179a7b	-0.03701256
132	0xbe0dad59	-0.13835658
133	0x3db2504d	0.087067224
134	0xbe0c47fc	-0.13699335
135	0xbe485ac9	-0.19565882
136	0x3e392a7a	0.1808261
137	0xbd62c560	-0.055364013
138	0x3e48110f	0.19537757
139	0xbe092209	-0.1339189
140	0xbe45ae6a	-0.19304815
141	0xbe0c27d9	-0.13687076
142	0x3cebf32b	0.028802475
143	0x3b689857	0.0035491192
144	0x3e298ae6	0.16556892
145	0xbe597ea7	-0.2123972
146	0xbe07a663	-0.13247065
147	0x3e2ef5aa	0.17085901
148	0xbe1020e3	-0.14075045
149	0xbe0acdc2	-0.13555053
150	0x3e570ed9	0.21001758
151	0x3e38bd39	0.18040933
152	0x3d3a3b06	0.045466445
153	0xbdc948ca	-0.098283365
154	0xbdb1bf23	-0.086790346
155	0xbe01e28f	-0.12684081
156	0xbe158e9f	-0.14605187
157	0x3e090e7f	0.13384436
158	0x3df18892	0.11793627
159	0x3dd4788c	0.10374555
160	0xbc0b1fc0	-0.0084914565
161	0x3eced01e	0.40393156
162	0x3e658a9e	0.2241616
163	0xbe63253b	-0.22182171
164	0xbee09704	-0.43865216
165	0xbd9f1ab0	-0.07768762
166	0xbe734ecd	-0.23760529
167	0x3e3476ee	0.17623493
168	0x3cd9ddf3	0.026595091
169	0x3e12300d	0.14276142
170	0x3dac1b56	0.084036514
171	0x3e01973e	0.1265535
172	0xbdcbf338	-0.099585
173	0x3d102618	0.03519258
174	0xbe1ab92d	-0.15109701
175	0x3da89b3e	0.08232735
176	0xbe3883b4	-0.18018991
177	0x3eb6efcf	0.35729834
178	0x3e5b0846	0.21389875
179	0x3e09fb84	0.13474852
180	0xbcade1b9	-0.021225797
181	0x3e24ed9d	0.16106267
182	0x3b19b440	0.0023453385
183	0x3eeeca42	0.46638685
184	0xbd034ae3	-0.03205384
185	0x3f09f4d7	0.5388922
186	0x3ddd5b8c	0.10808477
187	0xbd257fab	-0.040404957
188	0x3d01456b	0.031560343
189	0xbdc21945	-0.09477476
190	0xbe221422	-0.15827993
191	0x3e197d60	0.14989233
192	0xbe318aaa	-0.17338052
193	0xbe4badc4	-0.19890505
194	0xbd66ce34	-0.056348994
195	0xbe050113	-0.12988691
196	0xbdb419f0	-0.0879401
197	0xbd74b9ac	-0.059747383
198	0x3dcd9db9	0.10039849
199	0x3e729a29	0.2369162
200	0xbe8929a8	-0.26789594
201	0xbd9c351d	-0.07627318
202	0xbe8efd45	-0.27927604
203	0x3d593ea2	0.053038247
204	0xbe4c315f	-0.19940709
205	0x3d2efb1d	0.04271995
206	0x3e734273	0.23755817
207	0xbe08e02f	-0.13366769
208	0x3e07c289	0.13257803
209	0xbe24355b	-0.16035978
210	0xbe03e82e	-0.12881538
211	0xbe30e3cd	-0.17274399
212	0x3e146a1e	0.14493605
213	0xbe0506a3	-0.12990813
214	0xbd8bb3cc	-0.06821403
215	0xbd9578bc	-0.07298419
216	0x3e4486bf	0.19192027
217	0xbdb0554f	-0.08610021
218	0xbd5ca40a	-0.053867377
219	0x3d8551bf	0.065097325
220	0x3d73b7dc	0.059501514
221	0xbd35ea50	-0.04441291
222	0xbd843412	-0.06455244
223	0x3d7d8b5a	0.061900474
224	0x3d2dd77a	0.042441823
225	0x3d3ac6a7	0.045599606
226	0xbe1a80a6	-0.15088138
227	0x3e233993	0.15939932
228	0xbe2be9de	-0.16788432
229	0x3e449d35	0.19200595
230	0xbcd56ec7	-0.0260538
231	0x3d4131ba	0.047166564
232	0xbccf3f0d	-0.02529862
233	0xbe4fcbc6	-0.20292577
234	0xbe2c7023	-0.16839652
235	0xbe5f6d9f	-0.21819161
236	0xbdc90a58	-0.09816426
237	0x3cbeb151	0.02327791
238	0xbe1e3928	-0.15451491
239	0xbe47a717	-0.19497333
240	0x3e847ef5	0.2587811
241	0xbcb5b550	-0.022181183
242	0x3e78ed15	0.2430919
243	0x3e4f1229	0.20221771
244	0xbd55d761	-0.052207354
245	0x3ed9adfe	0.42515558
246	0xbc88d737	-0.016704185
247	0x3d628e25	0.05531134
248	0xbcd54efa	-0.026038636
249	0x38aa0164	8.106491e-05
250	0x3e9af6ae	0.30266327
251	0xbd92a20f	-0.071598165
252	0xbd5b723b	-0.053575736
253	0xbd0f67db	-0.035011154
254	0x3e633b65	0.22190626
255	0xbdb34751	-0.08753837

hidden1.bias f4 [20]
0	0xbd1ebacd	-0.038752366
1	0x3c851186	0.016243707
2	0x3e6d2488	0.23158467
3	0xbd9f7b4c	-0.07787189
4	0x3da361bc	0.07977626
5	0xbe61f8b0	-0.22067523
6	0xbd36b9c2	-0.044610746
7	0x3dfc1851	0.123093255
8	0xbd29919e	-0.041398637
9	0xbcb31550	-0.021860749
10	0x3e87358a	0.26408035
11	0x3e8590e8	0.26087117
12	0x3e229530	0.15877223
13	0xbd62a0b9	-0.05532906
14	0xbd3c5ed3	-0.04598887
15	0xbe256bbb	-0.16154377
16	0x3eaa1fe7	0.33227465
17	0xbdea7f6c	-0.11450085
18	0x3d0fa268	0.035066992
19	0x3c5be340	0.01342088

hidden2.weight f4 [5, 20]
0	0xbe15c246	-0.1462489
1	0x3d72ccfb	0.059277516
2	0x3e035402	0.12825015
3	0xbe547b4a	-0.20750156
4	0x3d3963a8	0.045261055
5	0x3e4e0209	0.20117964
6	0xbe24bf7e	-0.16088673
7	0xbe44d414	-0.19221526
8	0x3cede1ac	0.029038273
9	0xbdbb1ba1	-0.09136129
10	0x3d92bd1b	0.07164975
11	0x3e05af5b	0.13055174
12	0x3e441fb6	0.19152722
13	0x3dfc01b2	0.12305011
14	0xbe395031	-0.18096997
15	0x3cb4473a	0.02200662
16	0xbd9c387e	-0.076279625
17	0x3e503a6f	0.2033479
18	0xbe51353f	-0.20430468
19	0x3c0c1344	0.008549515
20	0xbcf050b5	-0.02933536
21	0x3e4cd87b	0.20004456
22	0x3d660eaa	0.05616633
23	0xbdaee8d3	-0.085405014
24	0x3ccd069b	0.025027564
25	0x3e98bf80	0.29833603
26	0xbbff75f9	-0.007796046
27	0xbb93c614	-0.0045096967
28	0x3db14edb	0.086576186
29	0xbd8226c6	-0.06355052
30	0xbd2d99b0	-0.042382896
31	0x3e4f8059	0.20263804
32	0xbbf93ad9	-0.007605892
33	0x3d562541	0.05228162
34	0xbde05dc0	-0.109553814
35	0xbd31855f	-0.043340083
36	0xbe23693f	-0.15958117
37	0xbe26047c	-0.16212648
38	0x3e2fcfa3	0.17169051
39	0xbdf89d9c	-0.121394366
40	0xbae29330	-0.0017286297
41	0xbdffac87	-0.12484079
42	0xbdc6cd1f	-0.097070925
43	0x3dc9c82f	0.09852635
44	0xbddc2150	-0.10748541
45	0xbba7952b	-0.0051142178
46	0xbe58d2fb	-0.21174233
47	0xbe182f61	-0.14861824
48	0xbe3e97a3	-0.18612532
49	0xbdbb37fe	-0.09141539
50	0x3da6ab3b	0.08138128
51	0x3d739b4d	0.05947428
52	0xbe4f6cd8	-0.20256364
53	0xbe4884aa	-0.19581857
54	0xbe00af4c	-0.1256687
55	0x3e35e332	0.1776245
56	0x3c2e6373	0.010643828
57	0xbd080ea2	-0.03321708
58	0xbe1af467	-0.15132295
59	0xbdf14d78	-0.11782354
60	0x3f00c840	0.5030556
61	0x3eb45f48	0.35228944
62	0xbe97974b	-0.29607615
63	0x3f13b390	0.57695866
64	0x3da1add4	0.07894483
65	0x3f736d7b	0.9508893
66	0x3e97e1e6	0.29664534
67	0x3d379214	0.044817045
68	0x3f137bc7	0.57610744
69	0x3f190301	0.5977021
70	0xbef73ef7	-0.48290226
71	0xbe50926f	-0.2036836
72	0x3ec0e606	0.37675494
73	0x3ebc7ed1	0.36815503
74	0xbe0173e3	-0.12641864
75	0x3f2af10e	0.6677407
76	0xbf0a3701	-0.5399018
77	0xbdbeec35	-0.09322397
78	0x3ee80273	0.4531437
79	0x3f4cd2a5	0.8000892
80	0x3b8b30c7	0.004247758
81	0xbdd49f69	-0.103819676
82	0xbe0015c9	-0.1250831
83	0x3e13bda3	0.1442781
84	0xbe1f98e8	-0.15585673
85	0xbe1aca64	-0.15116268
86	0x3d98043d	0.074226834
87	0xbd915597	-0.07096403
88	0xbb914ace	-0.0044339662
89	0x3db7e403	0.08979037
90	0xbe5cdd11	-0.21568705
91	0xbe263325	-0.16230448
92	0x3db40360	0.08789706
93	0xbe427ee5	-0.18993719
94	0x3db0d98a	0.08635242
95	0xbe1876ef	-0.1488912
96	0xbdfb538c	-0.12271795
97	0x3e1de22a	0.15418306
98	0x3e33e15a	0.17566434
99	0xbd458af4	-0.04822822

hidden2.bias f4 [5]
0	0xbdeda738	-0.1160416
1	0xbd823ff6	-0.06359856
2	0xbe4382a9	-0.19092812
3	0xbe871dc2	-0.2638989
4	0xbd6ced34	-0.057843402

output_layer.weight f4 [2, 5]
0	0xbd97c09f	-0.074097864
1	0xbe818974	-0.2530018
2	0x3e414aa4	0.1887613
3	0xbfba03b3	-1.4532379
4	0x3d9a8487	0.07544809
5	0x3e661f56	0.22472891
6	0x3ee70ac7	0.4512541
7	0x3ed92154	0.4240824
8	0x3fb13f12	1.3847373
9	0xbdc16f49	-0.09445054

output_layer.bias f4 [2]
0	0x406b0c8d	3.672641
1	0xc06e23f3	-3.7209442
