data/basic_nn/nn_save_cat3_final.pt (torch, 4459 bytes, 6 tensors)

hidden1.weight f4 [20, 20]
000000 3d 02 83 bc 17 dd 33 3e d5 ef 06 be d7 46 49 be
       -0.015992278 0.17564808 -0.13177426 -0.1965593
000010 eb 47 c2 bd e5 d3 f4 3d fe 2b 07 3d 95 0b a8 bd
       -0.094863735 0.11954478 0.03300094 -0.08205334
000020 52 7b 28 3e a7 aa 7d be 22 3c 2e be 56 f1 83 bd
       0.16453293 -0.2477213 -0.17015126 -0.064425156
000030 e7 0f 39 3d 16 8a 8c bd a2 f8 21 be 1c ca b0 bd
       0.04518118 -0.06862275 -0.15817502 -0.08632299
000040 43 e6 97 bd 2a 71 1d 3e 59 f0 33 3e 5a 7e b6 bd
       -0.07416966 0.153752 0.17572154 -0.089108184
000050 2b 2f 8d be d0 44 50 bd ae 41 b4 3d 43 33 91 be
       -0.2757505 -0.050846875 0.0880159 -0.28359422
000060 9e 0b 53 be eb 28 9d bd f6 a4 66 3c df b4 e4 3d
       -0.206099 -0.0767382 0.014077416 0.11167311
000070 4a d6 6e 3e 8a 3c 55 3c b5 ee dd 3d c5 0a 25 3e
       0.23323932 0.013014922 0.108365454 0.1611739
000080 c7 a6 5b bc c0 b1 52 bd f8 38 54 be 1a 7d 1f 3e
       -0.013406462 -0.051439047 -0.20724857 0.15575066
000090 a2 b9 13 be 24 25 a7 3d 68 e0 c0 bd 6e b2 53 be
       -0.14426282 0.08161381 -0.09417802 -0.20673534
0000a0 08 89 3d 3e 2a d7 8e 3d cf 08 80 3c ff b2 14 3b
       0.18509305 0.06974633 0.0156292 0.0022689698
0000b0 60 82 13 be 41 4d 31 3d 84 31 ce 3e f4 90 58 be
       -0.14405203 0.043286566 0.40272152 -0.21149045
0000c0 2f 90 8e bc 14 54 0c 3b 05 39 00 3c 77 86 18 be
       -0.017402736 0.002141242 0.0078260945 -0.14895044
0000d0 0c 52 30 3e 58 e0 a0 3d e5 61 0a be 19 ca aa 3d
       0.17218798 0.0785529 -0.13513906 0.08339328
0000e0 a6 84 05 bd 7d 20 91 3d af db 4c 3e 5e 00 df 36
       -0.032597207 0.07086275 0.20005678 6.6459606e-06
0000f0 b5 2b 01 be 70 1a 41 bd 2b d4 c0 3d 12 78 05 3f
       -0.12614329 -0.047144353 0.09415468 0.5213634
000100 01 4d a2 3e 08 3b 29 be 55 ff 10 3f 19 35 d8 3b
       0.31699374 -0.16526425 0.56639606 0.0065981266
000110 bc e5 c1 bc 48 87 b2 bd c4 75 3f bd 1d f4 15 3e
       -0.023669116 -0.08717209 -0.04674317 0.14643903
000120 8a a7 f8 3d 45 b0 50 3d 40 ad db bd f6 29 cc 3d
       0.121413305 0.050949354 -0.10726404 0.09968941
000130 36 99 8a bd 4a e4 41 bd e1 ed 81 3d bf 93 ae 3c
       -0.06767504 -0.047336854 0.063442 0.021310685
000140 75 c4 0a bb fc 39 83 3e 46 85 43 3e 8c e2 b5 3e
       -0.0021174226 0.25630176 0.19093809 0.35524404
000150 42 43 80 3d d9 09 f4 3d 0d 49 99 be 28 fe a9 3d
       0.062628284 0.11915941 -0.29938546 0.083004296
000160 02 af b0 bc 58 99 51 3c 80 19 34 3e e7 48 43 be
       -0.021567825 0.012792908 0.17587852 -0.19070779
000170 e7 7d 39 be 44 52 b9 bc 28 1d ce 3d 10 4a 03 3e
       -0.18114434 -0.022622235 0.10064155 0.12821221
000180 ef 85 47 be fc a8 4f be 76 9e 64 bd ec 56 85 bd
       -0.19484685 -0.20279306 -0.055815183 -0.0651072
000190 ef 08 c7 bd f3 cb 32 be 75 05 7a bd 02 5a 75 3e
       -0.09718501 -0.17460613 -0.06104036 0.23960117
0001a0 c7 77 0e bb 50 82 9b bd b9 6b 31 3d 51 88 54 3e
       -0.0021738873 -0.075932145 0.043315623 0.20755126
0001b0 47 ce b4 3d b6 e1 4a be 2c c0 e8 bd 5f c3 46 be
       0.08828407 -0.19812664 -0.11364779 -0.19410466
0001c0 18 9e 3b 3d e6 e8 01 3e 33 f2 0f bd 8a e4 96 bd
       0.045805067 0.126865 -0.03514309 -0.07367809
0001d0 96 76 1b 3e 98 bb 39 be 1c d8 a9 bd aa 8d 0b 3e
       0.15181956 -0.18137968 -0.08293173 0.1362826
0001e0 4a c8 a2 bc 13 10 ba 3d 88 b5 25 3e 14 3e b0 3c
       -0.019870896 0.09085097 0.1618253 0.021513976
0001f0 b9 39 85 be dd 9d 31 3e 88 94 0e be 24 10 32 be
       -0.260206 0.17345376 -0.13923848 -0.1738897
000200 3a 77 53 3e 41 a5 8c 3b 2d e8 09 bd 22 8c 4a 3d
       0.2065095 0.0042921607 -0.033668686 0.049450047
000210 37 84 aa bd a1 d8 1e 3e 58 0e 4f bd a9 8a 0e be
       -0.08325999 0.15512325 -0.05055079 -0.13920082
000220 a2 a6 b5 3d 87 72 5a 3e ae 9b c7 bd 57 04 2c be
       0.08869673 0.21332751 -0.097464904 -0.1679853
000230 da 37 23 be d3 90 15 3e 68 b6 1d bc 9d 52 15 3e
       -0.15939274 0.14606027 -0.009626009 0.14582296
000240 06 6a 30 3e 31 a9 32 3e 6a 9b a4 be 46 e1 66 3e
       0.17227945 0.17447354 -0.32149822 0.22546872
000250 02 f8 ce bd 2a e6 01 3e af dc d8 bd de 9e 01 be
       -0.101058975 0.12685457 -0.10588967 -0.1265826
000260 b1 4e 2b bc b6 9c bc 3d 49 66 31 bc 4a 81 ab bd
       -0.010455773 0.09209578 -0.010827609 -0.08374269
000270 c3 d3 e4 3d 3a fe 4e be 15 b1 67 3e c1 43 14 be
       0.11173203 -0.20214167 0.22626145 -0.14478971
000280 57 54 22 3e cd 21 2b 3d ae 75 fd bc 57 b2 03 3f
       0.15852486 0.04178028 -0.030939903 0.51444
000290 01 c3 d1 3e 74 76 88 3d c3 df 82 bd 9d c1 21 3d
       0.4096909 0.06663218 -0.063903354 0.039491285
0002a0 1b e3 04 3e 2f f3 9b 3c 33 25 08 be 7f b7 41 3e
       0.12977259 0.019036857 -0.1329544 0.18917654
0002b0 eb a9 bd 3d f4 39 10 3e b4 c4 a4 bd d6 77 6c bd
       0.09260925 0.14084607 -0.08045331 -0.057731472
0002c0 a8 42 04 be 95 67 c2 bd 61 f3 3e be a1 ef 40 be
       -0.12916052 -0.09492413 -0.18647529 -0.18841411
0002d0 58 13 cc 3c e9 1d 52 be 0e 4f 26 3e b0 79 97 3d
       0.024911568 -0.20519222 0.16241094 0.07396257
0002e0 ed 89 83 bb 52 28 3d bd 87 34 6c bd 9e dc 43 3e
       -0.004014245 -0.04618103 -0.05766728 0.19127128
0002f0 31 8c dc bd da 89 23 3e 10 b6 24 3e 92 6a 02 bc
       -0.10768927 0.15970555 0.16085076 -0.007959979
000300 6f 0e 8c 3c 58 83 00 be e8 40 1d 3e 2c 9b e3 3d
       0.017096726 -0.12550104 0.15356791 0.11113581
000310 0f 78 20 be 7e ee d6 bd 51 8e 3b be 08 9c 66 3d
       -0.15670799 -0.104947075 -0.18316008 0.056301147
000320 63 9e 88 3d 97 0c ae 3d ff d2 28 3e d8 38 30 3f
       0.06670835 0.08498495 0.16486739 0.68836737
000330 6b 92 f3 3e 35 20 7c 3e fa 4e c8 bd 04 59 a7 3e
       0.47572646 0.24621661 -0.097806886 0.326851
000340 f5 c4 bd 3b 30 27 23 3e 5b 83 c7 3b b7 e8 cc bd
       0.0057913014 0.15932918 0.006088657 -0.10005324
000350 dd 6f 73 bb fd ca 75 3c 1b 3a 4c 3e 01 b5 95 3b
       -0.0037145533 0.015002009 0.1994404 0.0045686965
000360 1c ac 7c 3b c2 89 b7 3d fe 57 57 3e e5 c5 57 3e
       0.0038554734 0.08961822 0.2102966 0.21071585
000370 c3 28 8a 3e d3 dc aa 3d 49 08 cd 3e cf fe 81 3d
       0.26984224 0.083429 0.40045384 0.06347429
000380 52 83 9f 3d 40 3c 64 3e ac 75 26 3e 25 e7 25 bd
       0.07788719 0.22288609 0.16255826 -0.04050364
000390 14 a5 81 bd 22 fe 20 be 88 b2 10 be df 1a a3 3d
       -0.06330314 -0.15721944 -0.14130604 0.0796411
0003a0 13 66 47 3e 80 db 7b 3e 92 f4 57 3e 91 76 b4 3d
       0.19472532 0.24595451 0.2108939 0.08811677
0003b0 d0 e5 2e bd ae 63 42 3e 53 ce 9b bd c9 6c 20 3e
       -0.042699635 0.18983337 -0.076077126 0.15666498
0003c0 fd 55 74 3c 2e e7 a7 bd 36 c6 41 3e ae 2a 04 be
       0.014913079 -0.08198391 0.18923268 -0.12906906
0003d0 d8 1b 5b 3e ca 8e 97 3d b9 0a 16 be 6b 06 f0 3d
       0.2139734 0.07400282 -0.14652528 0.11719974
0003e0 b2 5f e1 3d 86 e7 e4 bd af e5 d1 3c cf f6 a7 bd
       0.110045806 -0.11176972 0.025622217 -0.08201372
0003f0 37 a1 0c 3d 99 db 34 be 2e c4 8d bd ac 55 39 3e
       0.034333434 -0.17661895 -0.06922184 0.18099087

hidden1.bias f4 [20]
000000 fe 2e af bd a5 39 87 3e 80 7d 68 be 71 4b d5 3d
       -0.08553885 0.26411167 -0.22704124 0.1041478
000010 b3 2a e3 bd 6e a0 85 3d 0d a1 91 3d a4 95 fa 3d
       -0.110921286 0.0652474 0.07110796 0.12235573
000020 f6 14 ec 3d a5 e1 4f 3e 4b 4c 67 3e fb ee 8a bc
       0.115274355 0.2030092 0.22587697 -0.016959658
000030 a6 84 ad 3d d6 78 2e 3e ad 45 97 bd 32 46 af 3e
       0.08472566 0.17038283 -0.073863365 0.34233242
000040 4d aa a1 bd 4b 58 14 be 09 24 8c 3d cb 07 ac 3d
       -0.078938104 -0.14486806 0.06842811 0.08399924

hidden2.weight f4 [5, 20]
000000 08 6a 51 3d c2 83 24 3e 65 ff a7 3d a0 2e e1 bd
       0.05112651 0.16065887 0.082030095 -0.10995221
000010 40 2d a5 3d f3 23 fd bd 15 13 17 be 52 2d db 3c
       0.080652714 -0.123603724 -0.14753373 0.026755009
000020 72 f4 81 3d c4 85 2a be dd 8d 07 3e f6 b2 1c 3d
       0.06345452 -0.1665259 0.1323771 0.038256608
000030 95 4f 6e ba a9 0e 18 3d 9e a1 a2 3d 3e 84 0c 3c
       -0.0009090838 0.037123356 0.07940982 0.008576451
000040 c2 f7 07 be 59 d6 0c 3e eb fb 2a be d5 de 7a 3d
       -0.13278106 0.13753642 -0.16697662 0.061247665
000050 73 4d 95 be e0 c7 9d be 31 05 de 3e 57 3c 21 3f
       -0.29160652 -0.30816555 0.43363336 0.62982696
000060 a5 61 c2 3e 55 ce 66 3e 36 a7 12 bd 6f 07 98 3e
       0.37965122 0.22539647 -0.035803996 0.2969317
000070 f7 5a f6 3e e2 c6 78 bd 4e f9 15 3f ee a6 b6 3e
       0.48116276 -0.060736544 0.58583534 0.35674232
000080 3b d4 84 3d 7a 58 97 be 47 da 09 bc 24 1e ec be
       0.06485792 -0.2955969 -0.008413858 -0.46116745
000090 05 39 47 3e 30 7a 5f bd 1f ac c8 3e 9a 3f 14 3f
       0.19455345 -0.054559886 0.39193818 0.5790955
0000a0 7d 07 49 bd 91 40 bf 3d e5 5d 9b 3d 3b 45 28 be
       -0.049079407 0.09338487 0.07586268 -0.1643266
0000b0 aa 50 10 3e 20 96 41 3e 98 01 54 bd 20 74 c0 bc
       0.14093271 0.18904924 -0.051759332 -0.023492873
0000c0 8b ac 16 3e ed e2 1c 3d 66 6f 33 bd 8b 84 95 bc
       0.14714257 0.03830235 -0.04380741 -0.018251678
0000d0 2c 34 f4 bd fb 3b 1c be 01 c3 47 be f8 37 7b 3d
       -0.119240135 -0.15257256 -0.19507982 0.061332673
0000e0 44 c8 41 be 3d 3e 81 bd 09 02 33 3e a5 0d e4 bc
       -0.18924052 -0.06310699 0.17481245 -0.027838537
0000f0 6d 23 9f 3d e0 95 89 be 32 a8 0e 3d 9a 8e da 3e
       0.07770429 -0.26872158 0.034828372 0.4268692
000100 d3 fb 28 3e 75 ba 64 3d 6a 19 23 3e a6 2a 73 3e
       0.16502313 0.05584188 0.15927663 0.23746738
000110 fb 3a b4 3d 3f e0 e3 bd cf dc f8 3e 48 8c b7 3e
       0.08800312 -0.11126756 0.48605964 0.35849214
000120 34 7c 76 3c c3 47 5d bc ec c6 a8 3e 46 0e 8a be
       0.015044261 -0.013505879 0.32964265 -0.26964015
000130 65 5c b6 bb 36 c9 c3 3d 68 5d 9a bc d6 4c ea 3e
       -0.0055652135 0.09559862 -0.018843368 0.45761746
000140 6c 76 c8 bd db 70 84 3e bf a0 9b bd 82 bd 1f bd
       -0.09788212 0.25867352 -0.07599019 -0.038999088
000150 11 c4 2f bd d4 f2 95 bc 16 bc 81 3e 4d 46 08 bd
       -0.042911593 -0.018304266 0.2533881 -0.03327017
000160 cc 4a b1 bd 54 11 c0 3d 0a 4d a4 bd 44 2c 95 bd
       -0.086568445 0.09378305 -0.080225065 -0.072838336
000170 42 cb 7a bd c0 39 37 bd 00 ed ec bd 3f a0 4a 3f
       -0.061228998 -0.04473281 -0.11568642 0.79150766
000180 9f 1e 54 be d2 4e 6f 3e fa e3 4e 3e 82 8d d8 bd
       -0.20714806 0.23369911 0.20204154 -0.105738655

hidden2.bias f4 [5]
000000 2e 4a 33 be 58 31 44 be 2c 3e 4b be 32 8c 07 be
       -0.17508766 -0.19159448 -0.19847935 -0.13237074
000010 e7 8c 28 3f
       0.6584

output_layer.weight f4 [2, 5]
000000 a6 75 a0 3d d1 33 8e bf 95 4b 41 3e e0 fa 35 bf
       0.0783494 -1.1109563 0.18876489 -0.7108593
000010 5c 82 2d 3f da 9b de be f5 09 65 3f 90 5e b0 3e
       0.6777704 -0.4347828 0.8946832 0.34447145
000020 8a f6 16 3f af 27 69 bf
       0.5896994 -0.9107618

output_layer.bias f4 [2]
000000 23 bc 12 40 8f be ca bf
       2.292733 -1.5839404
