data/basic_nn/nn_save_cat1_final.pt (torch, 4459 bytes, 6 tensors)

hidden1.weight f4 [20, 20]
0.2462366 0.04093677 0.15268213 0.18760455 0.12498319 0.21964365 -0.04665128 0.21636456
0.032329306 -0.22014503 0.19970934 0.10564165 -0.01782754 0.09758684 0.045997053 0.15154757
0.19858095 0.115046926 -0.0239133 0.052103188 -0.055224266 0.07627867 -0.10240173 -0.11887009
0.054455604 -0.39624357 -0.15756054 0.13307798 -0.22822644 0.021050464 0.060555648 0.03535201
0.025971735 -0.2074278 0.10859427 0.22960186 -0.16018662 0.12309543 0.16555862 -0.110031605
0.23687766 0.27177942 0.35494828 0.32340217 0.076980084 0.08094087 0.012706465 0.3797054
0.11609917 -0.2495037 0.28326973 -0.006774728 0.16988528 -0.035147212 0.2070705 0.28878415
0.04044918 0.11947659 0.23375507 0.23041093 0.15525667 0.10282438 -0.095426396 -0.09069009
-0.13407224 0.11921874 -0.065650225 -0.17991526 0.20203964 -0.1481236 0.1740617 -0.13424937
-0.13662352 -0.17649223 0.13740332 -0.19075996 -0.24303374 -0.13859816 0.0879499 -0.21500996
-0.047764994 -0.025488302 -0.29665384 -0.24878635 0.11166222 -0.06785285 0.0024482377 0.122130655
-0.37201363 0.098798215 0.13014044 0.053494375 -0.17596847 0.17261389 -0.09575196 0.2552987
0.010189187 -0.25377408 0.1128101 -0.01857925 0.0047991425 -0.22870763 -0.37387744 -0.4444502
-0.2676656 0.12451834 -0.10092631 0.16044736 0.2592847 -0.020152405 0.25406718 0.14640145
-0.065503344 -0.15433536 0.050906386 0.0859416 0.0686949 -0.006995886 -0.13453831 -0.022540161
-0.3019549 0.005101669 -0.34771013 0.3691596 -0.4124462 -0.067112945 -0.24592555 -0.022866245
0.09167888 -0.051114816 -0.11990894 -0.11496668 0.36251244 0.17282218 0.13371506 0.29911652
-0.09746138 0.051888894 -0.17997275 0.08701507 0.24878035 0.28102845 0.17871536 0.15940301
0.2265062 0.2697134 0.09497161 0.29252443 -0.14089243 -0.26719916 0.24374187 0.028173154
-0.11052749 -0.11285537 0.024340669 0.16753499 -0.05813196 0.22976398 0.054540873 -0.08232378
0.0136479 0.17928529 0.28505507 0.23099333 0.11969068 0.22581013 0.12527585 -0.036883447
0.047618955 0.14539906 0.019289607 -0.11094998 0.2289379 0.13090603 0.38316754 0.26963797
0.0069013084 0.0011546905 -0.09361411 -0.03311821 -0.112485625 0.08035486 -0.1802718 0.14387956
0.105657525 0.019329231 0.1788144 -0.021900043 -0.027800776 -0.10452399 -0.16378643 -0.048052993
0.14610375 -0.222466 0.06264788 -0.16798633 -0.15104353 -0.0060451045 0.030516887 0.021386849
0.054235913 -0.23827809 -0.079169676 -0.14448132 -0.10362667 -0.13432442 -0.047555823 0.17156479
0.2187358 0.121052235 -0.12616974 -0.10525232 0.2292317 0.07364083 0.01963657 0.02921591
0.1539909 0.074991435 -0.020800583 0.06169817 0.15132 -0.27455774 -0.10601098 0.18835174
0.008803924 0.104993396 -0.2152812 -0.13094503 -0.22212999 -0.16731004 0.20305854 0.20168334
0.017854532 0.14631858 -0.21502382 -0.026538773 -0.14901562 0.19853902 0.06909448 0.1735896
0.23777974 0.1375191 0.22046033 0.21772052 -0.14349638 0.12672432 0.044512194 -0.041494723
0.17160144 0.057450626 0.17378095 0.10584116 0.14441893 0.10132662 -0.04798871 0.04496996
00000000: 7325 7c3e 51ad 273d b458 1c3e 681b 403e
00000010: 30f7 ff3d 44ea 603e 6a15 3fbd ac8e 5d3e
00000020: bc6b 043d b36d 61be 9b80 4c3e a65a d83d
00000030: 100b 92bc 9cdb c73d 6867 3c3d 492f 1b3e
00000040: ce58 4b3e b99d eb3d d3e5 c3bc 276a 553d
00000050: d732 62bd fe37 9c3d 00b8 d1bd 2972 f3bd
00000060: d70c 5f3d 70e0 cabe 8d57 21be 9845 083e
00000070: 31b4 69be 0672 ac3c 3309 783d 45cd 103d
00000080: adc2 d43c f467 54be ac66 de3d c01c 6b3e
00000090: f607 24be 7519 fc3d 3388 293e 4058 e1bd
000000a0: 0f90 723e ac26 8b3e c8bb b53e f894 a53e
000000b0: bca7 9d3d 54c4 a53d c72e 503c bf68 c23e
000000c0: 67c5 ed3d e67d 7fbe bb08 913e 8afe ddbb
000000d0: 68f6 2d3e 86f6 0fbd 4a0a 543e 84db 933e
000000e0: 0aae 253d 24b0 f43d 7d5d 6f3e d8f0 6b3e
000000f0: 9bfb 1e3e 9795 d23d ea6e c3bd babb b9bd
00000100: 3c4a 09be f428 f43d a073 86bd b53b 38be
00000110: 7be3 4e3e b7ad 17be 3b3d 323e ab78 09be
00000120: 09e7 0bbe 61ba 34be 75b3 0c3e 9456 43be
00000130: d6dd 78be adec 0dbe 141f b43d 922b 5cbe
00000140: 3aa5 43bd d8cc d0bc 03e3 97be d9c1 7ebe
00000150: 29af e43d 6ff6 8abd 9d72 203b a31f fa3d
00000160: 9278 bebe b856 ca3d 8943 053e eb1c 5b3d
00000170: 1431 34be b2c1 303e 9b19 c4bd 83b6 823e
00000180: 8cf0 263c adee 81be fb08 e73d 8333 98bc
00000190: 2042 9d3b 5532 6abe dd6c bfbe fa8e e3be
000001a0: 770b 89be 7903 ff3d 74b2 cebd 504c 243e
000001b0: f7c0 843e a816 a5bc 1815 823e 43ea 153e
000001c0: 9e26 86bd 170a 1ebe 3783 503d 2602 b03d
000001d0: e9af 8c3d bf3d e5bb 69c4 09be 25a6 b8bc
000001e0: d599 9abe e72b a73b 1007 b2be 7d02 bd3e
000001f0: 262c d3be 8372 89bd e8d3 7bbe fe51 bbbc
00000200: 23c2 bb3d c55d 51bd d192 f5bd a773 ebbd
00000210: 3b9b b93e 4cf8 303e 9aec 083e cd25 993e
00000220: d599 c7bd 7389 543d c74a 38be f534 b23d
00000230: 47c0 7e3e f6e2 8f3e 2901 373e 8b3a 233e
00000240: 3ef1 673e e017 8a3e 7a80 c23d c3c5 953e
00000250: 1b46 10be 54ce 88be 7897 793e 63cb e63c
00000260: 3d5c e2bd b720 e7bd 1566 c73c 4b8e 2b3e
00000270: c71b 6ebd 4047 6b3e 4066 5f3d 5f99 a8bd
00000280: 719b 5f3c 9096 373e bdf2 913e 8489 6c3e
00000290: 6320 f53d c53a 673e 5048 003e 1913 17bd
000002a0: 180c 433d 7ee3 143e 3d05 9e3c be39 e3bd
000002b0: b26e 6a3e 3b0c 063e 892e c43e fd0d 8a3e
000002c0: 5f24 e23b fc58 973a c1b8 bfbd f6a6 07bd
000002d0: dd5e e6bd 1791 a43d 2c99 38be 2a55 133e
000002e0: f962 d83d 5658 9e3c 1f1b 373e b867 b3bc
000002f0: 74be e3bc ac10 d6bd a1b7 27be 37d3 44bd
00000300: 399c 153e 21ce 63be 884d 803d 9c04 2cbe
00000310: 28ab 1abe 0316 c6bb 8dfe f93c 7933 af3c
00000320: 7a26 5e3d 2cff 73be b623 a2bd e9f2 13be
00000330: 383a d4bd 578c 09be e5c9 42bd aeae 2f3e
00000340: 47fc 5f3e 3cea f73d a432 01be 878e d7bd
00000350: b7bb 6a3e 01d1 963d dfdc a03c 3456 ef3c
00000360: caaf 1d3e 1c95 993d fc65 aabc 38b7 7c3d
00000370: a1f3 1a3e d592 8cbe 491c d9bd 47df 403e
00000380: 553e 103c c706 d73d ad72 5cbe 7416 06be
00000390: 0b76 63be 5353 2bbe 94ee 4f3e 1486 4e3e
000003a0: ab43 923c 8ad4 153e 342f 5cbe d767 d9bc
000003b0: 8d97 18be d04d 4b3e 6881 8d3d 79c1 313e
000003c0: 887c 733e cfd1 0c3e 5ac0 613e 21f2 5e3e
000003d0: b7f0 12be 05c4 013e 6b52 363d 5ff6 29bd
000003e0: 4ab8 2f3e 5951 6b3d a2f3 313e 40c3 d83d
000003f0: 8ee2 133e 5584 cf3d cf8f 44bd 6c32 383d

hidden1.bias f4 [20]
-0.19084513 -0.074057475 -0.05069362 -0.20554319 0.23941115 0.29011133 0.32682163 -0.20961672
0.043343708 0.03323665 0.16411239 -0.20420715 0.12864341 0.21960528 -0.06287563 0.35742745
0.24281207 0.58061665 0.5136553 0.29204214
00000000: e86c 43be 72ab 97bd 1da4 4fbd ea79 52be
00000010: 3228 753e 7989 943e 2a55 a73e c4a5 56be
00000020: 2c89 313d 2723 083d 140d 283e ae1b 51be
00000030: 19bb 033e 35e0 603e f0c4 80bd bb00 b73e
00000040: baa3 783e 4ba3 143f ea7e 033f 8c86 953e

hidden2.weight f4 [5, 20]
0.120164566 0.19479518 0.09645526 -0.017453313 -0.15958151 -0.04020145 0.14811037 0.097461306
-0.18209636 -0.03142626 -0.1519787 0.16262905 0.037324212 0.051574398 -0.15194114 -0.20893598
0.14703415 0.2095484 0.066141255 0.15995012 -0.17875896 0.39498696 -0.22596003 0.102298826
0.31876564 0.7191825 0.7535366 -0.09387871 -0.0011270791 -0.048452977 0.24485782 0.16258387
0.086476445 0.7851595 -0.13541977 0.9064545 0.83077985 1.0516154 1.2389642 0.40472806
-0.20851776 -0.16115224 0.12523942 -0.06860677 -0.17181438 -0.13892606 0.12576108 0.17068999
-0.17443734 0.0154481055 -0.16901715 0.18536656 0.17007974 0.1659907 -0.16526175 0.10040087
0.005296375 0.1485934 -0.12391196 0.14703552 0.28204218 -0.022649802 0.71397376 -0.16395772
-0.2279701 0.047618132 -0.019816542 0.43061513 0.5171848 -0.27607477 -0.2660228 -0.224602
0.24880654 -0.056857847 0.060568273 -0.4053391 -0.25100696 -0.15518224 -0.22304623 -0.2532319
0.21109946 -0.16698644 -0.14541307 -0.11216991 0.18556492 0.14288002 -0.13624682 0.17598307
0.074822284 -0.09395655 -0.22538272 -0.1669424 -0.017681342 -0.034415327 0.021130286 -0.12960616
-0.23352219 0.002429177 -0.19665706 0.04803654
00000000: d718 f63d 6378 473e 568a c53d 40fa 8ebc
00000010: 5669 23be 47aa 24bd 3faa 173e cb99 c73d
00000020: 7877 3abe d2b8 00bd 4ea0 1bbe 3b88 263e
00000030: 46e1 183d ad3f 533d 7596 1bbe 50f3 55be
00000040: 1f90 163e db93 563e 1175 873d f7c9 233e
00000050: 970c 37be bb3b ca3e 1162 67be 0c82 d13d
00000060: 4035 a33e 581c 383f c6e7 403f 7b43 c0bd
00000070: 80ba 93ba a176 46bd 02bc 7a3e 637c 263e
00000080: 901a b13d 3700 493f 7bab 0abe 670d 683f
00000090: fdad 543f 559b 863f 6196 9e3f 8438 cf3e
000000a0: ae85 55be 1805 25be c33e 003e b581 8cbd
000000b0: 1cf0 2fbe a242 0ebe 83c7 003e 5bc9 2e3e
000000c0: b49f 32be 0d1a 7d3c d512 2dbe bbd0 3d3e
000000d0: 6229 2e3e 77f9 293e 603a 29be f99e cd3d
000000e0: 378d ad3b de28 183e 8ec5 fdbd 7b90 163e
000000f0: d567 903e 148c b9bc fcc6 363f 88e4 27be
00000100: fe70 69be 3b0b 433d 4d56 a2bc 9679 dc3e
00000110: 3966 043f ac59 8dbe 2434 88be 11fe 65be
00000120: 24c7 7e3e c6e3 68bd 7016 783d 9b88 cfbe
00000130: fc83 80be 18e8 1ebe 3b66 64be 9da7 81be
00000140: 752a 583e 7efe 2abe 2ae7 14be 56b9 e5bd
00000150: bb04 3e3e 244f 123e 4984 0bbe e834 343e
00000160: 6d3c 993d 4b6c c0bd baca 66be f3f2 2abe
00000170: 76d8 90bc 16f7 0cbd 6c19 ad3c 7ab7 04be
00000180: 7120 6fbe d432 1f3b 7860 49be f7c1 443d

hidden2.bias f4 [5]
-0.21557751 0.9164461 0.2697016 -0.15303278 0.19329673
00000000: 5ac0 5cbe 369c 6a3f 5416 8a3e a0b4 1cbe
00000010: 94ef 453e

output_layer.weight f4 [2, 5]
0.029132554 1.7604533 0.35279557 -0.6384612 -0.29005897 0.014293941 -1.9747614 0.37066925
1.1006602 0.006953801
00000000: 65a7 ee3c 8956 e13f 9fa1 b43e 3172 23bf
00000010: 9c82 94be 2231 6a3c fbc4 fcbf 5cc8 bd3e
00000020: 6fe2 8c3f b6dc e33b

output_layer.bias f4 [2]
-0.029058797 -0.13175794
00000000: b70c eebc 8eeb 06be
